resultsUI/datasets/ChaLearn/voice_data/voice_librosa/test_data/14c94e57-495a-4fa9-b2e8-83bfb6ac0623.wav.npy (npy, 531844 bytes, 1 tensors)

array f4 [1, 1, 132929]
00000000: ff78 0938 4647 3638 3b11 1fb8 d6b1 4b37
00000010: d7a0 0f39 9d5d 5339 d3f7 0239 d545 9439
00000020: ae29 f338 65a1 0139 f017 c039 5ad1 0a39
00000030: 2029 8839 580b 293a 8abd e439 d6de b339
00000040: e8d2 fa38 6c88 3037 16ce 1639 2894 3a39
00000050: 317c e039 8e96 f8b8 960a 3fb9 9cf9 8d39
00000060: d8f5 1aba 5804 d7ba d330 e1ba 3812 06bb
00000070: 0675 21bb 28a7 2ebb 8edf 4cbb c47f 70bb
00000080: 5ba3 61bb d09b 67bb 5d5c 88bb 4c73 5abb
00000090: 748e 6cbb 9b2c 93bb 9dd6 7bbb 22e2 31bb
000000a0: 54d9 ebba 04c0 24bb 5a5c cdba a67d dfba
000000b0: 57a8 f4ba 1f12 c2b9 3859 5eba 3ca0 c9ba
000000c0: a68a bdb9 8006 24b9 2c7b 8dba 28e9 19ba
000000d0: b51f d5ba 0215 c2ba 3cf1 18bb da5b 47bb
000000e0: 0aa9 daba 06f5 f1ba 980c 4ebb deb6 5bbb
000000f0: fed2 3dbb 7485 03bb 1e6e aaba d71b d2ba
00000100: 4976 1ebb 02c7 453a 914e 823a d2e1 623a
00000110: 32e9 163b 322d 9e39 d489 933a bab4 a83a
00000120: 15f7 7d3b e646 713b c593 883b 405c be3b
00000130: 1068 9c3b b763 813b e476 333b 3a58 233b
00000140: 5f80 173a 860f b139 671c 953a c8ae 90b9
00000150: 3035 b8b8 52e0 6eba fe78 19bb 2ee8 11bb
00000160: 3b82 6dbb 7b61 2cbb f144 91ba 4be4 713a
00000170: 036c b73a f24f 5cb8 32ac 5e3a d9c9 533b
00000180: 9efb 8e3a 7601 c539 ea69 5c3b 4c5b 913a
00000190: 3c21 303b 1a99 623b 1062 ba3a 8aaf ab3a
000001a0: 8247 2f3b 12f7 893a c03e 52ba a0f2 8b3a
000001b0: 110c 353b 4bea 183b 5d0f b1b9 149d 21ba
000001c0: 0c33 7dba 7a95 4d3a e6e3 b0ba 6c08 71ba
000001d0: 8bdd 8dba 2e7e 143b 9544 983b 3443 843b
000001e0: ba06 e73b 580c a93b 45a9 8c3b 73ac 803a
000001f0: fe13 2b3b b462 493b 6ade 263b dea6 3c3b
00000200: 5e27 513b d1f0 113b 7c01 213b e9f2 3b3b
00000210: d513 8f3a e38a 5f39 a609 b739 009c 133a
00000220: 89ed 52ba 01a3 8abb 2657 14bc 88a7 f6bb
00000230: e4c5 debb eafb e0bb b40f 08bc 728e b2bb
00000240: a41d 6ebb f0ad 8abb e31b 60bb dd19 9dba
00000250: 2a8b ffba da09 94bb 3ebb 95bb d72a 90bb
00000260: 5688 95bb 8a87 cabb aab3 90bb c415 79bb
00000270: d2a2 7bbb ed1c a9bb c5fc a9bb f460 febb
00000280: 4f1a 14bc 3e9b 34bc 6041 32bc ccaf 12bc
00000290: e1b7 a4bb f2f1 6bbb 06c4 a6bb 400b 7fbb
000002a0: 0402 4ebb f36c 113b 6cee 513a fc40 afba
000002b0: ff6c 1e39 a3ba 203b 88b0 963b 484d ba3b
000002c0: d712 833b bd69 b23b 92b3 123c bb73 463c
000002d0: bf9c 443c b6a1 283c 5fbc 0f3c c020 e73b
000002e0: ec2a c03b 4c74 853b bc15 de3b 9489 b13b
000002f0: 27e1 be3b fa00 e43b 652b b43b 8fd9 d93b
00000300: 1614 b03b 8f47 593b 7945 303b 22ed a33b
00000310: bf2a aa3b 1a19 ad3b 8c18 0d3c 12c0 1b3c
00000320: bb02 3a3c 2ac3 1e3c 13c3 243c 7a10 3a3c
00000330: 3a1c e53b 965a f83a 9b2d 86ba 5e89 6fba
00000340: 46d9 703a 438a 3ebb 16c0 81bb a2a9 7bbb
00000350: 4356 89bb ff7f 2ebb 3e84 9ebb b339 a5bb
00000360: 56b1 78bb 3d6d b3ba f7a8 8fbb f120 efbb
00000370: 4566 19bc caff 0abc ef09 29bc c3fb 05bc
00000380: 0d61 33bb 4408 e939 7305 af3a a6e5 a639
00000390: b077 a13a 9818 4f3a ebe1 e53a a21b 0abb
000003a0: 2526 53bb 71d2 abbb d5df 3fbb 7ee5 88ba
000003b0: 64a1 d4ba a5e2 8bbb 8e4b 95bb 0f87 9abb
000003c0: e231 acbb d24c 61bb 533a afbb 2355 08bb
000003d0: 08d5 f1ba e9be 38bb 5c9d 34bb 6c5d afba
000003e0: dc29 94ba ace7 b3ba c8b3 baba 5fcf 1f3b
000003f0: 3e05 a93b cb0f 0e3c c1b3 f63b 6541 a63b
3.277603e-05 4.345856e-05 -3.79246e-05 1.21411485e-05 0.0001369746 0.00020157402 0.00012490088 0.0002828079
0.000115949064 0.00012362523 0.0003663893 0.00013238695 0.00025970582 0.0006448529 0.00043628766 0.00034307566
0.00011960213 1.0522181e-05 0.00014381888 0.00017793535 0.0004281714 -0.000118536045 -0.00018219123 0.0002707959
-0.00059112674 -0.0016404493 -0.0017180688 -0.0020457637 -0.0024636402 -0.0026649926 -0.0031261179 -0.0036697248
-0.0034429643 -0.0035340674 -0.004161401 -0.0033332882 -0.003609565 -0.0044914014 -0.003842748 -0.0027142842
-0.0017993846 -0.0025138864 -0.0015667782 -0.0017050996 -0.0018665892 -0.00037016065 -0.00084819226 -0.0015382837
-0.0003615219 -0.0001564268 -0.0010794154 -0.000587123 -0.001626006 -0.0014807286 -0.0023337146 -0.0030419738
-0.0016682458 -0.0018459863 -0.0031440612 -0.0033525745 -0.0028964872 -0.0020068558 -0.0013002788 -0.0016030025
-0.002417939 0.0007544608 0.0009941628 0.00086548657 0.0023027179 0.00030169782 0.0011256286 0.0012871244
0.0038752009 0.003681594 0.004168006 0.005809337 0.0047731474 0.0039486545 0.0027384097 0.0024924413
0.00057793217 0.00033771637 0.0011376262 -0.00027596042 -8.783711e-05 -0.0009112406 -0.0023418064 -0.0022263634
-0.0036240953 -0.002630322 -0.0011083168 0.0009227439 0.0013993982 -5.2526542e-05 0.0008494287 0.0032316356
0.0010908728 0.00037575857 0.0033632466 0.0011089831 0.0026875278 0.003457612 0.0014219899 0.0013098579
0.0026745503 0.0010525903 -0.0008020215 0.0010677166 0.00276256 0.002333301 -0.00033771517 -0.0006165069
-0.00096587907 0.0007842403 -0.0013495653 -0.00091946754 -0.0010823471 0.0022658217 0.0046468475 0.0040363315
0.0070503624 0.005158942 0.0042926394 0.0009817019 0.0026104446 0.0030728998 0.002546216 0.0028785984
0.0031914334 0.0022268782 0.0024567535 0.0028678721 0.0010915945 0.00021318677 0.0003491167 0.0005630851
-0.000804626 -0.0042308574 -0.009053981 -0.0075272955 -0.0067984927 -0.006865968 -0.008304525 -0.0054491097
-0.0036333585 -0.0042321607 -0.003419631 -0.0011985857 -0.001949643 -0.004517776 -0.00456944 -0.004399638
-0.0045633717 -0.0061807083 -0.004415949 -0.0038007358 -0.003839661 -0.005160919 -0.005187603 -0.0077630226
-0.009039476 -0.011023341 -0.010879844 -0.008953046 -0.005026803 -0.0036002365 -0.005089286 -0.0038916618
-0.0031434307 0.0022190183 0.0008008245 -0.0013370807 0.00015108658 0.0024525307 0.004598681 0.005685482
0.0040000486 0.005444734 0.008953946 0.012112553 0.012000262 0.010292461 0.0087729385 0.0070534647
0.0058644917 0.0040727016 0.0067774933 0.005418012 0.00582518 0.006958124 0.005498337 0.0066482495
0.005373488 0.0033154225 0.0026896878 0.0050026337 0.005193084 0.0052825334 0.008611809 0.009506242
0.01135319 0.009690085 0.010056275 0.011356467 0.0069918903 0.0018947895 -0.001023698 -0.0009137596
0.00091876497 -0.002907411 -0.003959666 -0.003840067 -0.0041911914 -0.0026626585 -0.004837542 -0.0050422787
-0.0037947497 -0.0013689172 -0.004384156 -0.007297628 -0.009362762 -0.008483836 -0.01031731 -0.0081777
-0.002737108 0.00044447382 0.0013353064 0.0003183309 0.0012318995 0.0007900088 0.0017538642 -0.00210736
-0.003221878 -0.0052435924 -0.0029277701 -0.001044437 -0.0016222415 -0.0042689615 -0.004556126 -0.0047158073
-0.00525497 -0.0034378064 -0.005347529 -0.0020802699 -0.0018450329 -0.0028189963 -0.0027559614 -0.0013379282
-0.0011303979 -0.001372566 -0.0014244253 0.0024385077 0.0051580956 0.0086707575 0.0075287526 0.0050737136
