resultsUI/datasets/ChaLearn/voice_data/voice_librosa/test_data/3c904fbe-d905-4f3d-b4c9-4de3fa5efa32.wav.npy (npy, 593284 bytes, 1 tensors)

array f4 [1, 1, 148289]
-3.6325502e-05 -0.0001700525 -0.00022737554 -0.0005327491 -0.0004862644 -0.00061818433 -0.00079774385 -0.0010127317
-0.0006316138 -0.00016919404 -0.00017869571 -0.00013462764 8.2072605e-05 0.00018537659 0.0006368254 0.0008733354
0.0004911908 0.00061543693 0.0004074034 0.0009078683 0.00086104096 0.0003729288 -0.00030885395 0.0005890358
0.00094941247 0.0013645873 0.0014236323 0.0008631916 -0.00011616965 0.0001735673 0.0013293241 0.0014148579
0.0022374438 0.0023622261 0.00249252 0.0024528033 0.0037399791 0.003533248 0.0048703956 0.005553684
0.0058867643 0.005232583 0.005314091 0.005030053 0.005571585 0.006963961 0.0060722097 0.004637435
0.0035371007 0.0037164744 0.0034257164 0.0053781997 0.0046559772 0.0059002154 0.005760963 0.006764536
0.007060916 0.0070077768 0.0065969257 0.006808865 0.007949266 0.0075702304 0.008400659 0.0069689984
0.006531745 0.004700263 0.0060203085 0.0067065703 0.006316725 0.0062030926 0.006122972 0.0033736657
0.0013578247 0.0015406637 -0.00028954094 0.00012741612 0.0011048445 -0.00030957581 0.0004986457 0.0013380586
0.0038504032 0.0058490266 0.0028848369 0.0030136993 0.0025988007 0.004363973 0.0059153605 0.0052752956
0.0034212053 0.004453675 0.004718173 0.0025337208 0.002392435 -4.0273182e-05 -0.0041980394 -0.0050456314
-0.0066123353 -0.009862932 -0.010817141 -0.010058648 -0.008277199 -0.008237144 -0.003370092 -0.0014157674
-0.0020237584 -0.0021018137 -0.0011986669 -0.0049753124 -0.0077448413 -0.011164876 -0.013437807 -0.009736847
-0.014046188 -0.019544236 -0.023316065 -0.01857394 -0.017461594 -0.014448572 -0.014234784 -0.015663113
-0.017286995 -0.020679228 -0.01990309 -0.02277169 -0.020500394 -0.019714966 -0.020750407 -0.024825789
-0.020075468 -0.019755572 -0.019887809 -0.019772794 -0.0247305 -0.022513632 -0.021382764 -0.01861568
-0.016704604 -0.012454718 -0.015681915 -0.017513992 -0.017174924 -0.018609181 -0.016330846 -0.018380454
-0.017778609 -0.016475007 -0.014194175 -0.005934714 -0.004359752 -0.00090636814 0.0039367415 0.004263318
0.0062216213 0.006817562 0.0058299964 0.005864533 0.009240314 0.0067913425 0.0044171666 0.00390842
0.0021639124 -0.007191731 -0.008786645 -0.0045779543 -0.0055333646 -0.008796605 -0.0006661896 -0.0008209851
-0.00509782 0.00094213476 -0.002727104 0.0020340392 -0.00025181833 0.00554462 0.0023254887 0.001987084
0.008636175 0.0042471266 0.005032773 0.008353964 0.007553151 -0.0028135164 -0.005129581 -0.0059890603
-0.008098867 -0.012443298 -0.00711769 -0.007042759 -0.009955004 -0.007869666 -0.00683928 -0.0028168666
0.0020507749 0.005399838 0.006389859 0.016050812 0.01891275 0.02062558 0.022269491 0.021379426
0.023785744 0.021620566 0.023298625 0.021126067 0.01761685 0.020616591 0.025382936 0.03039997
0.031466346 0.033680644 0.028334407 0.02774622 0.027584367 0.031461164 0.037249967 0.031062648
0.028954241 0.029523041 0.03307555 0.029353108 0.032269258 0.02704473 0.026355786 0.024424339
0.024118025 0.029136622 0.029881682 0.03942015 0.03244316 0.021477763 0.015029762 0.024260942
0.020088304 0.014118955 0.008482247 0.0033117463 0.00534298 0.004250774 0.0031740207 0.0064634564
0.01582635 0.017056491 0.020846091 0.021073317 0.020883309 0.011821784 0.009641407 0.0073982812
3.159186e-05 -0.004207072 -0.0078323595 -0.0121185705 -0.011246227 -0.008237446 -0.012423797 -0.013395785
00000000: 365c 18b8 1f50 32b9 a86b 6eb9 30a8 0bba
00000010: 4ef1 feb9 a60d 22ba af1f 51ba a3bd 84ba
00000020: e292 25ba ae69 31b9 4460 3bb9 d52a 0db9
00000030: 651e ac38 a661 4239 a1f0 263a 8cf0 643a
00000040: 42c3 003a 4655 213a c298 d539 03fe 6d3a
00000050: 7bb7 613a a885 c339 aded a1b9 8669 1a3a
00000060: fee1 783a f4db b23a 2c99 ba3a cf47 623a
00000070: 1ba0 f3b8 9eff 3539 b73c ae3a c172 b93a
00000080: 14a2 123b 94cf 1a3b 8c59 233b 36bf 203b
00000090: 701a 753b 118e 673b d797 9f3b aefb b53b
000000a0: c2e5 c03b 1676 ab3b d421 ae3b 25d3 a43b
000000b0: d891 b63b f031 e43b 63f9 c63b a0f5 973b
000000c0: b4ce 673b 1890 733b fc81 603b 9c3b b03b
000000d0: 2b91 983b 9856 c13b 76c6 bc3b 0aa9 dd3b
000000e0: 425f e73b 7ea1 e53b 062b d83b e61c df3b
000000f0: a33d 023c b20f f83b eba2 093c 325c e43b
00000100: 4008 d63b aa04 9a3b 0246 c53b cac2 db3b
00000110: 88fc ce3b 5043 cb3b 36a3 c83b b818 5d3b
00000120: 09f9 b13a 18f0 c93a 87cd 97b9 019b 0539
00000130: 6ed0 903a 904e a2b9 8cb7 023a cc61 af3a
00000140: 0c57 7c3b 31a9 bf3b 880f 3d3b 7c81 453b
00000150: a450 2a3b a9ff 8e3b a4d5 c13b 63dc ac3b
00000160: 4d36 603b 22f0 913b e79a 9a3b c80c 263b
00000170: 66ca 1c3b 00eb 28b8 b58f 89bb d355 a5bb
00000180: 4aac d8bb 2398 21bc 613a 31bc 07cd 24bc
00000190: 179d 07bc 16f5 06bc c3dc 5cbb 4591 b9ba
000001a0: 08a1 04bb 95be 09bb 961c 9dba f207 a3bb
000001b0: 70c8 fdbb e2ec 36bc 3f2a 5cbc 4c87 1fbc
000001c0: fc21 66bc 3c1b a0bc 5501 bfbc 6028 98bc
000001d0: 9e0b 8fbc b4b9 6cbc 0339 69bc ee4f 80bc
000001e0: 759d 8dbc 7c67 a9bc ce0b a3bc b28b babc
000001f0: 71f0 a7bc 4881 a1bc c2fc a9bc 745f cbbc
00000200: 4f75 a4bc 70d6 a1bc c2eb a2bc 8efa a1bc
00000210: 9e97 cabc 826e b8bc e82a afbc e97f 98bc
00000220: 18d8 88bc e00e 4cbc 5c77 80bc 8179 8fbc
00000230: 6db2 8cbc 4872 98bc 44c8 85bc 9b92 96bc
00000240: 72a4 91bc 98f6 86bc af8e 68bc fd77 c2bb
00000250: 40dc 8ebb 5699 6dba c8ff 803b 4eb3 8b3b
00000260: bede cb3b db65 df3b 8e09 bf3b 452b c03b
00000270: b064 173c e989 de3b e1bd 903b 3412 803b
00000280: 6dd0 0d3b 9da8 ebbb dcf5 0fbc aa02 96bb
00000290: 3a51 b5bb a31f 10bc 3aa3 2eba 6137 57ba
000002a0: 9d0b a7bb 98f9 763a 36b9 32bb 844d 053b
000002b0: 7c06 84b9 a5af b53b 3a67 183b bd39 023b
000002c0: be7e 0d3c 7b2b 8b3b f6e9 a43b 11df 083c
000002d0: 6c80 f73b f962 38bb 0b16 a8bb e13f c4bb
000002e0: 1cb1 04bc f9de 4bbc 833b e9bb f2c6 e6bb
000002f0: 501a 23bc c6ef 00bc 0a1c e0bb 2e9b 38bb
00000300: 4b66 063b 20f1 b03b 0662 d13b fe7c 833c
00000310: e9ee 9a3c faf6 a83c 826e b63c e823 af3c
00000320: 52da c23c 9d1d b13c c2dc be3c 9310 ad3c
00000330: 3651 903c 20e4 a83c e0ef cf3c 5c09 f93c
00000340: dbe2 003d b7f4 093d 8f1d e83c 0a4c e33c
00000350: 9cf8 e13c 6cdd 003d 6c93 183d 1877 fe3c
00000360: 7231 ed3c 4eda f13c 3a7a 073d ee75 f03c
00000370: c52c 043d e98c dd3c 17e8 d73c 8d15 c83c
00000380: 2a93 c53c edaf ee3c 6eca f43c 0677 213d
00000390: 1ee3 043d 22f2 af3c 643f 763c e2be c63c
000003a0: 3a90 a43c 3053 673c 1ff9 0a3c e209 593b
000003b0: 2a14 af3b 144a 8b3b 3b03 503b 67cb d33b
000003c0: 43a6 813c 0eba 8b3c 6cc5 aa3c f3a1 ac3c
000003d0: 7913 ab3c 28b0 413c fef6 1d3c 486d f23b
000003e0: 8081 0438 7adb 89bb 4c53 00bc f88c 46bc
000003f0: 1842 38bc 5af6 06bc 2e8d 4bbc ff79 5bbc
