resultsUI/datasets/ChaLearn/voice_data/voice_librosa/test_data/e1d22b1e-321f-412c-b5dd-793fc7e27bb0.wav.npy (npy, 646528 bytes, 1 tensors)

array f4 [1, 1, 161600]
2.4820692e-06 5.632388e-05 8.3477076e-05 0.00014597407 0.0001155709 2.7950686e-05 3.9737668e-05 9.048659e-05
0.000118596705 9.159306e-05 9.479116e-05 9.841788e-05 0.00013282383 9.5513366e-05 0.00023463792 0.00023431682
1.8285291e-05 -9.624096e-05 0.000105523875 0.00018651965 0.00051820703 0.0006376811 0.0004026576 0.0005390675
0.00049044617 0.0002863083 0.00016104504 0.00058450294 0.0007253429 0.00066109956 0.00037195557 0.00037450183
0.0005465491 0.0008622316 0.0012001989 0.00081697863 0.0008017615 0.0012735955 0.0015073186 0.0012311488
0.0012869833 0.0012177031 0.0012835894 0.0016935398 0.0019974764 0.0016198985 0.0009452943 0.0014308506
0.0020388705 0.0012634231 0.0006835499 0.0006480919 0.0005891097 0.0012687639 0.002062973 0.0016795641
0.0015590932 0.0022131302 0.0016461886 0.0012000478 0.0007667678 0.0005677248 3.741715e-05 0.00041450595
0.0009658102 -0.00015970007 0.00017995248 0.0010404144 0.0012901276 0.001255169 0.0007421082 0.00026541008
0.0005216628 0.0006131388 -0.00041636956 -0.0010714112 7.56908e-05 0.00018610703 -0.00044931832 0.0001769622
0.0008492739 0.00076852826 -0.00023605995 -0.0011162813 -0.000928048 -0.00092737505 -0.0010873487 -0.00011668015
-0.0004083658 -0.0009396209 -0.00011041538 0.0002832451 -0.0007079641 -0.0016231171 -0.001686144 -0.0021467537
-0.0021950337 -0.0018561928 -0.0023823818 -0.0032380356 -0.004197902 -0.0040854407 -0.003287024 -0.0025879722
-0.0012336578 -0.0020197458 -0.002339024 -0.0016022442 -0.0015686096 -0.0007218447 -0.0015332993 -0.0025961825
-0.0021999998 -0.0020495532 -0.0012921226 -0.00084078475 -0.0012438782 -0.0013755404 -0.0025013227 -0.0023128742
0.00026892498 0.0018007136 0.0014002959 0.0013384079 0.0012059808 -0.00024062494 0.00012706431 0.0004671064
-0.0006306841 -0.0012284869 -0.002398125 -0.0021138974 -0.0007079664 -0.0005375725 -0.00087256066 -0.001120333
-0.0010977155 -0.0017950495 -0.0022326463 -0.0018340171 -0.0023918892 -0.003106359 -0.0024096367 -0.00083771977
-0.00032187736 -0.0004181096 -0.0007615284 -0.00026398586 -0.000718212 -0.0022939425 -0.0020579495 -0.0016936327
-0.0016892329 -0.0018622774 -0.0014130634 -0.00041725303 -9.747681e-05 -0.0007489571 -0.0014480944 -0.0016988319
-0.0015298488 -0.0015168557 -0.0018807532 -0.0024762983 -0.0020170168 -0.0017429469 -0.0009750653 -6.833945e-05
6.468652e-05 0.0012758288 0.0002534075 -0.0007349019 -0.00015985234 -0.0003531126 -0.00011249301 0.0010377006
0.0016966606 0.0021919725 0.002240313 0.0018556372 0.0016749972 0.0019691605 0.0020690588 0.001758767
0.0007330092 0.0001701843 0.0013543889 0.001232492 0.0017253137 0.0025281808 0.0020406628 0.002571131
0.0025851624 0.0014398887 0.00084170146 0.0010304373 0.00035549197 0.00024542402 0.0018531256 0.003154166
0.004362411 0.0035178654 0.0024969522 0.0027603097 0.0019391382 0.00174418 0.0013867929 0.0007582099
0.0012602985 0.0011786035 0.0030331854 0.0038388104 0.0020085347 0.00097501185 -0.00050519 -0.0007403208
-0.00036349555 -0.0007123805 -0.002321848 -0.003685419 -0.0023252852 0.00078498974 0.0027589884 0.003787656
0.003356043 0.0014279763 0.00052920013 0.0020011629 0.0037449566 0.004021927 0.0036025448 0.0024905119
0.0024908003 0.0022892887 0.002946759 0.004019956 0.0037248894 0.003003156 0.004312269 0.006350393
0.008125036 0.008362639 0.0056945966 0.005008 0.0048780954 0.004167402 0.0041668676 0.0038484253
0.002945799 0.0013167196 -9.839771e-05 0.00037375695 0.00084145676 0.001563711 0.0009857345 0.0010280923
00000000: a091 2636 4e3d 6c38 6a10 af38 9e10 1939
00000010: a85e f238 a477 ea37 ffab 2638 9ec3 bd38
00000020: 1fb7 f838 a615 c038 9eca c638 b265 ce38
00000030: a046 0b39 594e c838 2309 7639 f1b2 7539
00000040: 5d63 9937 f9d4 c9b8 b34c dd38 7d94 4339
00000050: 49d8 073a 0e2a 273a ca1b d339 3550 0d3a
00000060: 4991 003a a61b 9639 33de 2839 5439 193a
00000070: f024 3e3a a44d 2d3a 0803 c339 c958 c439
00000080: 4a46 0f3a 6207 623a fe4f 9d3a 822a 563a
00000090: 4e2d 523a c6ee a63a 3891 c53a 805e a13a
000000a0: feaf a83a 569b 9f3a 1d3e a83a c4f9 dd3a
000000b0: 18e8 023b c652 d43a a0cd 773a 618b bb3a
000000c0: 929e 053b 7299 a53a 4230 333a b6e4 293a
000000d0: 7c6e 1a3a a74c a63a f232 073b d224 dc3a
000000e0: 7d5a cc3a 2a0a 113b ecc4 d73a ec4a 9d3a
000000f0: ea00 493a 5ed3 143a 5cf0 1c38 0c52 d939
00000100: 6d2e 7d3a 2975 27b9 a0b1 3c39 845e 883a
00000110: 8019 a93a 7c84 a43a 0a8a 423a bd26 8b39
00000120: 33c0 083a 0cbb 203a 2d4c dab9 986e 8cba
00000130: 30bc 9e38 ba25 4339 7c92 ebb9 ee8e 3939
00000140: cfa1 5e3a 0f77 493a dc86 77b9 2f50 92ba
00000150: 3f48 73ba 161b 73ba 5e85 8eba 2eb2 f4b8
00000160: ee19 d6b9 e450 76ba ce8e e7b8 8480 9439
00000170: ab96 39ba c6be d4ba 9b01 ddba 8db0 0cbb
00000180: 8eda 0fbb 7f4b f3ba bc21 1cbb 3935 54bb
00000190: 8e8e 89bb 29df 85bb 1d6b 57bb f89a 29bb
000001a0: b0b2 a1ba b65d 04bb 504a 19bb 6502 d2ba
000001b0: ce99 cdba 2e3a 3dba fdf8 c8ba b724 2abb
000001c0: df2d 10bb cc51 06bb 715c a9ba 1c68 5cba
000001d0: a009 a3ba 7a4b b4ba 3bed 23bb 9793 17bb
000001e0: 80fe 8c39 ec05 ec3a 228a b73a 846d af3a
000001f0: 0012 9e3a 4450 7cb9 913c 0539 f6e5 f439
00000200: 7e54 25ba 2e05 a1ba dc29 1dbb 5089 0abb
00000210: d296 39ba e1eb 0cba 8ebc 64ba 23d8 92ba
00000220: 38e1 8fba de47 ebba 9751 12bb 6763 f0ba
00000230: 3ec1 1cbb 0e94 4bbb ffea 1dbb 6c9a 5bba
00000240: a6c1 a8b9 b835 dbb9 4ea1 47ba 9567 8ab9
00000250: 6446 3cba f855 16bb aade 06bb e2fc ddba
00000260: 4069 ddba a917 f4ba 8a36 b9ba c1c2 dab9
00000270: 776c ccb8 a955 44ba fccd bdba 57ab deba
00000280: 3585 c8ba 3bd1 c6ba 9b83 f6ba 6449 22bb
00000290: ed2f 04bb 9873 e4ba 869b 7fba 7651 8fb8
000002a0: 50a8 8738 b639 a73a c7db 8439 6fa6 40ba
000002b0: 099e 27b9 f921 b9b9 3aea ebb8 7403 883a
000002c0: 7c62 de3a 32a7 0f3b 37d2 123b da38 f33a
000002d0: 948b db3a 080d 013b 0c99 073b 6d86 e63a
000002e0: 6a27 403a 8073 3239 c085 b13a 928b a13a
000002f0: ec23 e23a d6af 253b a4bc 053b 6c80 283b
00000300: d46b 293b a6ba bc3a a1a5 5c3a bd0f 873a
00000310: 5361 ba39 41ac 8039 94e4 f23a 20b6 4e3b
00000320: 8ef2 8e3b fd8b 663b e8a3 233b 50e6 343b
00000330: ae2a fe3a f89c e43a 0cc5 b53a 9bc2 463a
00000340: 9a30 a53a 5f7b 9a3a 68c8 463b 8d94 7b3b
00000350: 9fa1 033b f097 7f3a ba6e 04ba 1612 42ba
00000360: 8c93 beb9 0cbf 3aba 252a 18bb 1287 71bb
00000370: d063 18bb c5c7 4d3a 25d0 343b 533a 783b
00000380: 0ff1 5b3b ef2a bb3a 05ba 0a3a f125 033b
00000390: f26d 753b 5eca 833b ac18 6c3b db37 233b
000003a0: b23c 233b e407 163b 6a1e 413b d6b9 833b
000003b0: 461d 743b 99d0 443b ef4d 8d3b f516 d03b
000003c0: df1e 053c 7303 093c bd99 ba3b 261a a43b
000003d0: 6ed8 9f3b b48e 883b 388a 883b dd35 7c3b
000003e0: 4e0e 413b c795 ac3a de5a ceb8 cff4 c339
000003f0: 3595 5c3a 6ff5 cc3a c333 813a 0ec1 863a
